model.tflite (tflite, 1792 bytes, 3 tensors)

sequential/dense_1/MatMul f4 [16, 1]
0	0x3ee7f88d	0.45306817
1	0xbec947db	-0.39312634
2	0x3f03fc5d	0.5155695
3	0x3ec60494	0.38675368
4	0x3ed709e6	0.4199974
5	0xbf025d0a	-0.50923216
6	0xbed3bd04	-0.41355145
7	0xbd63dff1	-0.05563349
8	0xbe987fed	-0.297851
9	0xbe735b68	-0.23765337
10	0xbee5d876	-0.4489171
11	0x3e321389	0.17390265
12	0xbcc64df4	-0.024207093
13	0x3e63e6d0	0.22256017
14	0x3ed4d09e	0.41565412
15	0xbed4a8be	-0.4153499

sequential/dense_2/MatMul f4 [1, 16]
0	0x3f0b60f3	0.5444481
1	0x3bc2bd32	0.005942964
2	0xbf20c2d1	-0.62797266
3	0xbc70b3a4	-0.014691267
4	0x3ebbdd42	0.36692244
5	0xbe0ba5f5	-0.13637526
6	0x3efb6981	0.4910393
7	0xbee2e921	-0.44318488
8	0x3e43bf7c	0.19116014
9	0x3a954c16	0.0011390473
10	0xbdca1d7e	-0.098689064
11	0x3e79a769	0.24380268
12	0xbe72f690	-0.23726869
13	0x3ea2a05f	0.31762978
14	0x3e6ee6e7	0.2333027
15	0xbe0c0d27	-0.13676892

sequential/dense_1/MatMul;sequential/dense_1/Relu;sequential/dense_1/BiasAdd f4 [16]
0	0xbd9ea34b	-0.077459894
1	0x3c61967a	0.013768787
2	0x3d7c39f4	0.061578706
3	0xbc6a34bf	-0.014294802
4	0xbd691c2d	-0.056911636
5	0x3c87aae3	0.016560977
6	0x3c99c796	0.018771928
7	0xbc552304	-0.013008837
8	0x3c45f6ef	0.012082799
9	0x3c080464	0.008301828
10	0x3c725156	0.0147899
11	0xbd093359	-0.033496235
12	0xbbea8550	-0.0071570054
13	0xbd3212dc	-0.043475017
14	0xbd2d3783	-0.04228927
15	0x3c599c77	0.013281933
